GAT/result/model/gat_model.pt (torch, 134330 bytes, 117 tensors)

att_src f4 [1, 1, 30]
00000000: 743e 9bbe 58a5 5f3e 0ca8 bbbe 58ce bebe
00000010: a744 dfbe fcfe bbbe 48dd ac3d 9b03 b5be
00000020: b823 f23d 0002 543e 5081 253e c884 5e3e
00000030: 0492 a4be 50f7 8d3c a27e bbbe 28b1 733d
00000040: f887 f73d 4b7d b1be 9129 43be 5dc0 cabe
00000050: 54c4 c8be 0808 a73d 94aa 8cbe 5c7b 843e
00000060: 189c 2b3e b482 cfbd f8fb 0f3e b0a8 b8bd
00000070: a443 4d3e ceea 843e
-0.30321085 0.21840417 -0.36651647 -0.37266803 -0.43607065 -0.36717975 0.084406435 -0.35354313
0.11823219 0.20703888 0.1616261 0.2173034 -0.3214265 0.017329842 -0.3662005 0.05949512
0.12086481 -0.34665903 -0.19058825 -0.39599887 -0.39212286 0.08155829 -0.2747389 0.25875366
0.16758764 -0.101323515 0.14060962 -0.090165496 0.20045334 0.25960392

att_dst f4 [1, 1, 30]
00000000: e04c 163c 06f1 07be 3b85 44be a980 d9be
00000010: 42aa dc3e e8d6 263e 383f c3bd 524c 4bbe
00000020: 00cb 01be f0e8 7e3e c2dc 88be a05f 3cbd
00000030: 2cf4 543e 800d 25bc 101d 1abe 18fe d63e
00000040: 1821 91be 7892 b23d 68f1 303d 508e ab3d
00000050: e00f 763d de92 d63e d4bd 843e 583d bbbe
00000060: f81f 013e 287c a8bd 8025 61bb 6d86 d1be
00000070: 5063 973e 3a39 b63e
0.009173602 -0.13275537 -0.19191448 -0.42480972 0.43098646 0.16292918 -0.095335424 -0.19853333
-0.12675095 0.24893546 -0.26730925 -0.045989633 0.20796269 -0.010074019 -0.15050149 0.41990733
-0.2834556 0.08719343 0.043198973 0.08376753 0.060073733 0.41908926 0.25926077 -0.3657024
0.12609851 -0.08226806 -0.0034354627 -0.4092287 0.29567957 0.35590535

bias f4 [30]
00000000: 0000 0000 0000 0000 0000 0000 0000 0000
00000010: 0000 0000 0000 0000 0000 0000 0000 0000
00000020: 0000 0000 0000 0000 0000 0000 0000 0000
00000030: 0000 0000 0000 0000 0000 0000 0000 0000
00000040: 0000 0000 0000 0000 0000 0000 0000 0000
00000050: 0000 0000 0000 0000 0000 0000 0000 0000
00000060: 0000 0000 0000 0000 0000 0000 0000 0000
00000070: 0000 0000 0000 0000
0.0 0.0 0.0 0.0 0.0 0.0 0.0 0.0
0.0 0.0 0.0 0.0 0.0 0.0 0.0 0.0
0.0 0.0 0.0 0.0 0.0 0.0 0.0 0.0
0.0 0.0 0.0 0.0 0.0 0.0

weight f4 [30, 2]
00000000: aced ef3d e25a 1b3e 801c 9cbb b34a a13e
00000010: b566 ce3e 9043 f9bd bcee 0dbe 641d acbd
00000020: 3b2d c5be e336 d33e 492a d3be 2768 d93e
00000030: ceb0 82be e4d7 b7be b0d4 c1bd 29a6 8dbe
00000040: e696 89be 62fc 483e 870f b9be 3ce5 da3d
00000050: 6028 11be c164 c43e 297a a63e 9a0d 063e
00000060: dcc9 af3d 3ce8 80be 883f 3b3d 00b1 933a
00000070: 456d 863e caf4 713e 7e1b 563e 7e6d 39be
00000080: 2e19 6c3e 7048 02bd 209d 86bc c2cf 1b3e
00000090: 941b b73d 38b2 c6be e009 313c b8b9 01be
000000a0: 6315 d03e db33 dc3e 8428 c13d e296 24be
000000b0: e1ab b33e 619b 41be 392b d83e 8873 4e3d
000000c0: 0cc1 53be 68ba fcbd 1847 04bd 32eb 6f3e
000000d0: 06a4 b5be d0df 783d 7f3c b83e a1b6 893e
000000e0: 706a 4fbe b5a5 d73e 808d b8be 30e8 7d3d
0.11715254 0.15171388 -0.0047641397 0.31502303 0.40312734 -0.1217109 -0.13860601 -0.08404043
-0.3851107 0.41252813 -0.412432 0.42462274 -0.25525516 -0.359069 -0.09464395 -0.27665833
-0.2687294 0.19627526 -0.3614466 0.10688254 -0.14175558 0.3835812 0.32515076 0.13091126
0.085834235 -0.2517718 0.045714885 0.001126796 0.2625524 0.23628536 0.20908925 -0.18108174
0.2305648 -0.031807363 -0.016432345 0.15215972 0.08940807 -0.38807845 0.010805577 -0.12668502
0.40641317 0.43008313 0.09431556 -0.16073182 0.3509207 -0.18906929 0.42220476 0.050403148
-0.2067911 -0.12340242 -0.032294363 0.23429564 -0.35476702 0.06076032 0.35983655 0.26897147
-0.20255446 0.42118612 -0.36045456 0.06198901

weight f4 [30]
00000000: 0000 803f 0000 803f 0000 803f 0000 803f
00000010: 0000 803f 0000 803f 0000 803f 0000 803f
00000020: 0000 803f 0000 803f 0000 803f 0000 803f
00000030: 0000 803f 0000 803f 0000 803f 0000 803f
00000040: 0000 803f 0000 803f 0000 803f 0000 803f
00000050: 0000 803f 0000 803f 0000 803f 0000 803f
00000060: 0000 803f 0000 803f 0000 803f 0000 803f
00000070: 0000 803f 0000 803f
1.0 1.0 1.0 1.0 1.0 1.0 1.0 1.0
1.0 1.0 1.0 1.0 1.0 1.0 1.0 1.0
1.0 1.0 1.0 1.0 1.0 1.0 1.0 1.0
1.0 1.0 1.0 1.0 1.0 1.0

bias f4 [30]
00000000: 0000 0000 0000 0000 0000 0000 0000 0000
00000010: 0000 0000 0000 0000 0000 0000 0000 0000
00000020: 0000 0000 0000 0000 0000 0000 0000 0000
00000030: 0000 0000 0000 0000 0000 0000 0000 0000
00000040: 0000 0000 0000 0000 0000 0000 0000 0000
00000050: 0000 0000 0000 0000 0000 0000 0000 0000
00000060: 0000 0000 0000 0000 0000 0000 0000 0000
00000070: 0000 0000 0000 0000
0.0 0.0 0.0 0.0 0.0 0.0 0.0 0.0
0.0 0.0 0.0 0.0 0.0 0.0 0.0 0.0
0.0 0.0 0.0 0.0 0.0 0.0 0.0 0.0
0.0 0.0 0.0 0.0 0.0 0.0

running_mean f4 [30]
00000000: 8406 a040 1bdd 1241 9d6b ccbf 7834 48c0
00000010: a6df 2241 2167 2641 baa8 3bc1 c3a8 08c1
00000020: 18b2 8d40 b8e4 ae3f 3c42 2841 9be9 ac40
00000030: 5600 dec0 0c8d 823e 16d7 0241 a9c3 88c0
00000040: d676 433e 53ad 8b40 e16d 2ec1 7c7a 69c0
00000050: 0099 6841 4f95 87c0 085e 74c0 fa7c 6140
00000060: c37e 93c0 eafc d540 dc0e 533d 95ad 1941
00000070: e01b 3541 55e7 743d
5.0007954 9.178981 -1.5970341 -3.1282024 10.179602 10.400178 -11.728693 -8.541202
4.42799 1.366355 10.5161705 5.4035163 -6.937541 0.25498235 8.177511 -4.2738843
0.19088301 4.3649077 -10.901826 -3.6481009 14.5373535 -4.236976 -3.8182392 3.523253
-4.609224 6.6871233 0.051527843 9.604878 11.319305 0.059790928

running_var f4 [30]
00000000: 9c1c 1144 ed57 0345 6771 8c43 8f2d 5d43
00000010: 1549 4145 99d6 4b45 6648 4845 948a da44
00000020: 0081 2744 6c00 5b43 9310 3645 99b6 2544
00000030: 3fad 9d44 3f0d 2240 9b0c bf44 9d4c 1144
00000040: 6cef 3f42 5fa7 f043 6b24 3f45 7b90 a743
00000050: bcf1 9745 2097 f643 b205 1844 de2e aa43
00000060: c00a f043 ddd1 8d44 e52b f642 e4ef 0245
00000070: 9f57 5745 f0ac fe42
580.447 2101.4954 280.88596 221.17796 3092.5676 3261.4124 3204.525 1748.3306
670.0156 219.00165 2913.036 662.8531 1261.414 2.5320585 1528.3939 581.1971
47.98381 481.3076 3058.2761 335.12875 4862.217 493.18066 608.089 340.36615
480.08398 1134.5582 123.08573 2094.9932 3445.4763 127.33777

weight f4 [1, 30]
00000000: 94c0 673e 8efb 16be 68d4 203e 68a2 e7bd
00000010: 2ca7 1b3e 6adf 92be 4021 353e 3888 553e
00000020: b0b9 e03d 1e3a 973e 1263 85be d612 c3be
00000030: 3438 89be c020 cbbb 5c5c 193e b329 9ebe
00000040: b8d4 a13e 9ace 83be 7455 1b3e 90c3 c13e
00000050: 46d8 4ebe a6bf cd3e d29e d83e e83a a93d
00000060: 188a 6dbe 44cc 953e 14d2 8abe f43c 0f3e
00000070: ae61 77be 9865 113e
0.22632056 -0.14744398 0.15706027 -0.113102734 0.1520049 -0.28686076 0.17688465 0.20852745
0.10972917 0.29536527 -0.26052147 -0.38100308 -0.26800692 -0.0061989725 0.14976639 -0.3089119
0.31607604 -0.25743562 0.15169317 0.37844515 -0.2019969 0.4018528 0.4230867 0.082631886
-0.2319721 0.29257405 -0.27113402 0.13988096 -0.24158356 0.14198911

att_src f4 [1, 3, 20]
00000000: 066e 8dbe 7e5d 87bf 7246 093e 6532 d8be
00000010: 990e 0e3e 6621 b33e 1fe2 153b 8702 9e3d
00000020: 75fd 453f e499 17bf 7177 15bc a7d4 33be
00000030: 0696 ad3e 058d 26bf 2a5f 033e ac39 67bf
00000040: 152b ae3c 5a6b 9ebe 9de7 7b3e ee18 6bbd
00000050: f738 ef3e 8765 683f 6c2b 18bd f4ef b73d
00000060: 32ed a7bd 7a16 99be a602 91bc e131 9c3e
00000070: 5139 2f3e b944 d5be 303d 4bbf a6c7 edbe
00000080: 490a 6bbe 6a7c 3abf 83b4 1f3e 6da1 163f
00000090: e15e 603f 52b5 e4be 077d 253f 83bf 33be
000000a0: f9ee 1ebf 6796 e9bd f366 8d3e 1463 2ebd
000000b0: 403b f3bd a917 193f a7e1 41bf 0e36 913d
000000c0: aa7b 2ebd 7b7b 3f3f 1cd1 4dbf 5531 13bf
000000d0: fad6 bf3e 3052 3abd 6ad5 12bf f52d 8bbe
000000e0: 49f5 013f 96d3 31be 89b5 bb3d cb76 24bf
-0.27623004 -1.0575407 0.13405779 -0.42225948 0.13872756 0.34986418 0.0022870374 0.07715326
0.7733987 -0.59219193 -0.009122715 -0.17561589 0.3390352 -0.6505893 0.12829271 -0.90322375
0.021260777 -0.30941278 0.24600072 -0.05739682 0.46723148 0.9077992 -0.037150785 0.08981314
-0.08199538 -0.2989996 -0.017701458 0.30506805 0.17111708 -0.41653994 -0.7939024 -0.46441382
-0.22953142 -0.7284609 0.15596204 0.58840066 0.87644774 -0.44669586 0.646439 -0.17553525
-0.62083393 -0.1140564 0.27617607 -0.042574957 -0.118765354 0.5980173 -0.75734943 0.07090388
-0.042598404 0.7479779 -0.803972 -0.5749715 0.37468702 -0.045488536 -0.57356894 -0.271835
0.507649 -0.1736587 0.091654845 -0.64243764

att_dst f4 [1, 3, 20]
00000000: 8d02 093f e2d8 febe b036 7ebe 09a4 a6be
00000010: c83c 793c 1a6a 1e3e 36a1 d0bb 3423 ad3d
00000020: b39b 04bf 380a cc3a c08a fc3e a06f 66be
00000030: edb9 2fbf a83c 25be 92f9 0a3f a7f3 a4be
00000040: af82 5b3e 0ce9 4e3e 26af 863e 6def 10bf
00000050: bbd6 bd3e 046b 173d f896 40be 07de b6bd
00000060: cf43 673e 8a3f abbd 4db0 a13c d45c 103f
00000070: 0897 333e 80e5 1b3e 21f1 be3e da3e 433e
00000080: 7e59 6f3e 5de2 b43e 0123 9bbe 374c 3e3e
00000090: 64f4 033f 5b39 b53e f42d b53e c199 9e3e
000000a0: 48ef cbbe f788 273f 135d fe3d 6747 05bf
000000b0: 2987 65bd 21b8 a4be 219c b1be e89d 16be
000000c0: 93d8 903e 8279 da3e 5390 cebd 1763 6dbe
000000d0: 3c52 3bbe 2528 e0be 354c 783e c982 db3d
000000e0: 23a6 e23e 8939 f23e d16b 6dbe 347b d8bc
0.5351952 -0.49774843 -0.24825549 -0.32547024 0.015212245 0.15470162 -0.006366874 0.0845398
-0.5180008 0.001556701 0.49324608 -0.22503519 -0.68643075 -0.1613642 0.54287064 -0.32217142
0.2143657 0.20206088 0.26305503 -0.56615335 0.3707789 0.036967292 -0.1880759 -0.08929067
0.2258446 -0.083617285 0.019737387 0.56391644 0.17538083 0.15224266 0.37293342 0.19066945
0.23373982 0.3532895 -0.30300143 0.18583761 0.51544785 0.3539532 0.35386622 0.3097668
-0.39830995 0.65443367 0.12420096 -0.52062076 -0.056037102 -0.3217173 -0.3468943 -0.14708674
0.28290233 0.42670828 -0.100861214 -0.23182331 -0.18293089 -0.43780628 0.2424782 0.10718305
0.44267377 0.4730952 -0.2318566 -0.026425935

bias f4 [20]
00000000: 87a9 38ba dc4d 3aba 47a0 703a 41a6 743a
00000010: 8aa9 89ba 35e3 f7ba b2be 90ba 172a 08b9
00000020: e3db be39 bac2 e1b9 1f3e 7e38 1909 a2ba
00000030: 2a85 a4b8 3d62 003a b909 5c39 5017 b1ba
00000040: d49f a83b a63f 3fb8 37f7 a1bb ba40 7c38
-0.00070443045 -0.0007106939 0.00091791566 0.0009332635 -0.0010502797 -0.0018912317 -0.001104316 -0.0001298565
0.00036403452 -0.00043060427 6.0616174e-05 -0.001236233 -7.844933e-05 0.0004897451 0.00020984457 -0.0013510976
0.005146006 -4.5597226e-05 -0.0049428004 6.0141763e-05

weight f4 [60, 12]
00000000: f4d0 08be 9fe0 54bc d0b9 583e c8fa dabe
00000010: ceb2 4d3e c980 3ebe e3da 6c3e 9e56 aabe
00000020: 525f 3bbe 1df4 8d3d 4315 4abe 96ed af3e
00000030: 0d94 a5bf 968b 573d 3c80 3ebe 852f 57be
00000040: bef5 6cbf 1e73 eabc c6a3 8a3e a76a eabe
00000050: 7723 0f3d e060 49be b9bc c13e 4f31 203e
00000060: 24db 1a3f 81e0 573c c21b eabd dc1b 7cbe
00000070: 28ba 32bd 37ed 7dbd f5af 1f3e 37f5 553d
00000080: d704 963e eaf1 183e 719c 123e c940 e03c
00000090: 2992 18be 4a9f 60bd 8150 db3e b35e cc3d
000000a0: df61 b5be 23bd 97be a8d3 0cbe 6e38 a13d
000000b0: 62f5 dfbd ae66 903e b1b1 67bd c5a3 46bb
000000c0: 5d27 193e a9d4 ea3d 6a35 dbbd 7769 d1bd
000000d0: 2395 553e 8e9a d5bd a0d4 0fbe 83ca 65bd
000000e0: 11cb 29be b56b 1ebd 2983 2bbe 2076 f8bd
000000f0: 7a90 e03e 0380 303a 7e8b c53d fd57 f33d
00000100: 5c37 00bf 3dd7 04bf 54cd 9bbd 6649 b6be
00000110: 968a 14bf 0b01 e6bd 04ed a93d eb9e d9be
00000120: 242c fcbd 5032 d03c 1c23 76be 8311 7e3e
00000130: c3c9 0a3e 27d0 3d3e aef3 70be c962 373e
00000140: cf9b 0ebd 4c0d 2abe 749f 30be f9be cdbd
00000150: 3abd 0fbe a765 67be f266 b6bd aabd 1e3d
00000160: f959 193e c68e 84bc f120 40be 1bf5 563c
00000170: 6ce4 02be 42cb ecbd b8b0 a2be 5aa5 13be
00000180: 3a8c ef3e fb17 43bd 3728 c2be bcde 78be
00000190: 356f 3d3f 38ed 02be b6c5 e0bd b902 a43d
000001a0: 436d a3be c0fc 72be 5905 83bd 77ef 31be
000001b0: be6e 2fbf f3c5 b2bd ec1f 023f 0f9e 52be
000001c0: 4db1 b4be 3abe d0bd 02eb 8c3d 1520 903e
000001d0: 8c4c 84be 96ea 62be a233 bc3e 845b 68bd
000001e0: b801 02bd 6b6d 21bf ebd8 15bf 1b68 c5be
000001f0: 1da3 123e 6a81 823e 7777 eabe 939f 0abe
00000200: 302d 8cbe 44ca a5be 2568 43be cd47 08bf
00000210: 63ef a43e f770 6e3e 18bf 5c3e 2f1c 8b3e
00000220: 1a4c 193e b3fb cdbd 7c6a ad3d 62c8 0dbe
00000230: c298 193e 50c6 52be 87eb c23e 764e 833e
00000240: 9b3e 2c3f 8798 463d 7714 54bd 4cf0 a63e
00000250: 458e c93e a7ba 7c3e ad75 07bd 6334 b7be
00000260: 4a12 a6be 3422 99be 1b64 fdbe f87e c73d
00000270: c10f 0dbf cc3e 5ebc afb9 cdbe 7011 0e3e
00000280: 324a 0fbe b10d c53e 4d8f 183e 8c56 2e3e
00000290: 1b00 19bd 2eca dc3e c39b 8abb cd81 27be
000002a0: ccb7 b9bd 769d 9cbe 2aa0 8fbe 2609 1cbe
000002b0: d5e0 2dbe b004 733c ee01 2d3e 3c42 113e
000002c0: 768c 493e 99f9 b6be ffa9 853d 05b0 bbbd
000002d0: bf02 50bf 9511 3a3d a574 8fbe 8396 4ebe
000002e0: 487e 3bbf a57b 2d3d d1b9 583d 5bfe 783d
000002f0: 5a7b 8abe 89f6 f5be f0ec 52be 1bd4 5bbe
00000300: c4eb d13d 7aa1 9ebe 01aa 05be 9b51 0fbc
00000310: 3be6 083e 570e f7bd c2f2 21be 6de5 9cbb
00000320: d0cc c0bd a971 f9bd 1995 75be 659f 9ebd
00000330: d582 f6bd 3410 4b3e e6ec 4abe bb66 073e
00000340: d060 13be 3ee1 403e 373b df3e 5529 073e
00000350: ceed d13c 5848 c13d a6ca e83e ed7b 743d
00000360: b6ca 4ebf c81f 71be f355 cfbd 837f 47be
00000370: a9b0 6dbf a65c 69be 0ee0 0cbe a76f cebd
00000380: 0b2d b4bd de7c 57be 1063 08be b55e ecbd
00000390: 7355 59be 0c79 88bb 056a 54be d5ef 97be
000003a0: 3a8a f1be 272b f33d 6748 edbd 7461 be3d
000003b0: 10d1 cebe 7307 adbe fb3a aebd 226c b0be
000003c0: 9a60 193e 5a6a 94bc efd0 b7be e042 3f3d
000003d0: 5135 d5bd 4aa2 63be 677b a3be 1d4f e9bd
000003e0: 598a d63b bc9e 883c 988b 943c 4d50 8cbe
000003f0: a448 1f3d bf87 a53d ebd8 a2be da37 9bbd
-0.1336096 -0.012993007 0.21164632 -0.42769456 0.2008774 -0.18603815 0.23130374 -0.3326921
-0.1829808 0.069313265 -0.19734673 0.3436095 -1.2935807 0.052623354 -0.18603605 -0.21014221
-0.9256247 -0.028619345 0.27078074 -0.45784494 0.03494593 -0.19665861 0.37839296 0.1564381
0.6049063 0.0131760845 -0.11431076 -0.24620003 -0.043634564 -0.061993804 0.15594466 0.05223581
0.29300568 0.14936033 0.1431749 0.027374642 -0.14899506 -0.05483941 0.42834857 0.09979
-0.35426232 -0.29636487 -0.13752615 0.07872091 -0.10935475 0.28203338 -0.056565944 -0.0030310017
0.14956422 0.11466343 -0.10703547 -0.10225194 0.20857672 -0.104298696 -0.14045954 -0.056101333
-0.1658137 -0.038676936 -0.16749252 -0.121319056 0.43860227 0.00067329424 0.09645747 0.11882017
-0.5008447 -0.5189093 -0.076075226 -0.35602874 -0.58023965 -0.11230668 0.0829716 -0.42504057
-0.12313107 0.025414616 -0.2403683 0.24811368 0.13553528 0.18536435 -0.23530456 0.17908777
-0.03481656 -0.16606635 -0.17248327 -0.10046191 -0.14037028 -0.22597371 -0.08906354 0.038755096
0.14975728 -0.01618136 -0.18762566 0.013119961 -0.12782449 -0.11562206 -0.3177545 -0.14418545
0.46786672 -0.04763029 -0.37921306 -0.24303716 0.73997813 -0.12785804 -0.1097521 0.08008332
-0.31919298 -0.23729229 -0.06397504 -0.17376505 -0.68528354 -0.08729162 0.5082996 -0.20568107
-0.3529152 -0.10192533 0.06880762 0.28149477 -0.2583965 -0.221598 0.36758143 -0.0567279
-0.03173992 -0.63057584 -0.58534116 -0.3855599 0.14320035 0.2548936 -0.4579427 -0.13537435
-0.27378225 -0.3238088 -0.19082697 -0.5323456 0.32213888 0.2328528 0.21557271 0.2716994
0.14970437 -0.100577734 0.08467576 -0.13845971 0.14999679 -0.20583463 0.38070318 0.25645798
0.6728303 0.048485305 -0.05177733 0.32605207 0.39366356 0.24680577 -0.03307121 -0.35782155
-0.32435828 -0.29908907 -0.49490437 0.09741014 -0.55102164 -0.013564777 -0.40180728 0.1387384
-0.13993147 0.38487008 0.14898415 0.17025203 -0.037353616 0.43123 -0.004229994 -0.16358109
-0.090682596 -0.30588883 -0.28051883 -0.15237865 -0.16980298 0.014832661 0.16895267 0.14185423
0.19682488 -0.35737303 0.06526565 -0.091644324 -0.8125419 0.045426924 -0.2801868 -0.20174603
-0.73239565 0.042354245 0.052911583 0.060789447 -0.27047235 -0.48039654 -0.20598197 -0.2146763
0.10250047 -0.30982572 -0.13053133 -0.008747484 0.13369076 -0.12063282 -0.15815261 -0.004788092
-0.09414065 -0.12179882 -0.23982657 -0.07745246 -0.12036673 0.198304 -0.19816932 0.13222782
-0.143924 0.18835923 0.43599865 0.1319936 0.02562609 0.094376266 0.45467108 0.059688497
-0.8077806 -0.2354728 -0.101238154 -0.19482236 -0.92847687 -0.22789249 -0.13757345 -0.1007989
-0.08797654 -0.21043727 -0.1331904 -0.115415014 -0.21224003 -0.0041648205 -0.20743568 -0.29675165
-0.4717577 0.11873465 -0.11586075 0.092959315 -0.40393877 -0.33794746 -0.085073434 -0.344575
0.14978257 -0.018117119 -0.3590159 0.046694636 -0.1041056 -0.22229877 -0.31930086 -0.11392043
0.006547254 0.016677253 0.01813297 -0.27405015 0.038887635 0.08082532 -0.3180612 -0.07579012

weight f4 [20]
00000000: 494a 603f fd6c 283f 965d 993f 358e 833f
00000010: 5d38 943f 67a6 4b3f ed12 943f ac5b 763f
00000020: d1ab 3c3f be2a 923f 42ba 463f db8a 823f
00000030: e243 733f 86b6 773f b159 493f e10a 433f
00000040: b0a7 973f f528 4b3f 51f1 b03f c5fa 703f
0.8761335 0.657913 1.1981685 1.0277773 1.1579701 0.79550785 1.1568276 0.9623363
0.7369967 1.1419294 0.77627957 1.0198625 0.95025456 0.96762884 0.78652483 0.76188475
1.1848049 0.7935937 1.3823644 0.94132644

bias f4 [20]
00000000: faf3 8bbe ba08 0dbf a285 9cbd 69a6 923e
00000010: 6ef4 03bd 1ba0 dabe aec2 97be 798c 9c3d
00000020: 000b 27bf c44b 35be daf1 1b3f 8737 bdbc
00000030: 0547 a7be 8cba 513d 093f 1b3e 0893 1ebf
00000040: d468 2f3e 9937 6b3f 3f62 35bf bfb8 6a3f
-0.27334577 -0.5509144 -0.07642676 0.28642586 -0.03221553 -0.42700276 -0.29640716 0.076439805
-0.6525116 -0.17704684 0.6091591 -0.023097767 -0.3267137 0.051203296 0.15160765 -0.619431
0.17129833 0.9188171 -0.70853037 0.9168815

running_mean f4 [20]
00000000: 2e7f 39bf bcf7 88bf a5c5 243f 814a 1fbe
00000010: f885 20bf 4f2e 74bf 5cf9 d7bf af47 85bf
00000020: 45fe 33bf d39d 563f 29d6 25bf ad7d a93e
00000030: 900c 673f 9979 d7be c22e 3cbe c665 a1bf
00000040: 5d85 01bf 020e 3b3f cb06 d0bf 267e 4abf
-0.72459686 -1.0700603 0.6436408 -0.15555765 -0.6270442 -0.9538316 -1.6872973 -1.0412501
-0.7030986 0.8383457 -0.6477991 0.33103696 0.90253544 -0.4208496 -0.18377212 -1.2609184
-0.5059412 0.7306825 -1.6252073 -0.7909874

running_var f4 [20]
00000000: 375e 5e3f f4b9 8940 0fd0 613f 61ea 553f
00000010: 12bd dd3f 70ef c53f 1ebe 8840 c501 f33f
00000020: ceca b23f b051 5a40 7d0d 3a40 d773 bb3f
00000030: 7345 b73f 2689 a93f 8efa a63f 4816 3440
00000040: 0dc8 2540 a18f b33f 532b 3b40 01c7 1140
0.8686251 4.3039494 0.882081 0.8356076 1.7323325 1.5463696 4.2732077 1.8984915
1.3968141 3.4112358 2.9070733 1.4644727 1.4318069 1.3244979 1.3045213 2.81386
2.5903351 1.4028207 2.9245193 2.2777712

att_src f4 [1, 3, 2]
00000000: d9d5 08be 8ffb 413f 18e5 7dbd 2e9c 473f
00000010: 00f5 7dbe 53e8 e5be
-0.13362826 0.7577447 -0.06198606 0.77972686 -0.24800491 -0.44903812

att_dst f4 [1, 3, 2]
00000000: 3d88 3fc0 f421 0cbf f108 f1be b610 1e40
00000010: 4de9 58bd 0391 57c0
-2.9926903 -0.5473931 -0.47077134 2.46977 -0.052956868 -3.3682258

bias f4 [2]
00000000: 0f9f 2e3f 2c9f 2ebf
0.68211454 -0.68211627

weight f4 [6, 20]
00000000: 2419 da3e 67e8 acbd 3fb8 da3e 22a6 b73e
00000010: bdfb 02be 4788 cb3c aacd f63e bf79 49be
00000020: be69 b23e 62cb bd3e f64a af3d 834d c83e
00000030: b85b ce3e 45bf 0b3f 91bd 7a3e b5bf f8bc
00000040: 734f 29be f989 913e 15bf 483f 9ec8 c23e
00000050: f021 b43e 9af0 a3be d871 5f3e 1c4c 9c3e
00000060: 5a46 313e be61 6cbe 25fb dabd 9975 62bd
00000070: 7b31 1abe 861a 333e 6a41 503e 5117 e13e
00000080: 3a37 b33d 2e9e ff3e 239d b53e 25c4 b8be
00000090: dc38 073f 564b c53e a79c 4e3c 1b0a a93e
000000a0: 0401 ed3d 2af2 99be f56b c8be c5a3 aabe
000000b0: e117 9ebe 3c93 a2bc 2ff9 063d 1be0 dcbd
000000c0: 66d8 7c3e d457 c0be d84b 7fbe efda e0be
000000d0: ca66 a8be ff5f 10be 2a06 813e ff3c 4e3e
000000e0: c0e3 3abe 5e65 0bbf 7136 f73e 246f a0be
000000f0: 2638 f9bd 9e2e 07bf 4d9c f7be f3b4 dabe
00000100: bb0f 5e3e 9c74 cfbe f508 2bbf e2dc fc3e
00000110: d049 21be ab5f e3be cf67 69be 4c14 d2be
00000120: c483 bdbe 7473 dbbd fd9c c03d f454 2d3d
00000130: 0fb2 783d a20e e9be e838 ecbe 6eda 6bbe
00000140: 2903 173c dcf1 fa3e d798 fcbe 3050 c0bd
00000150: 33c4 5bbe 32b5 c93e f4b7 b63e 2c65 e23d
00000160: 04bf 273f ddf9 d13d 4d9c f5be 069c a8bd
00000170: 17e4 063e 6c3c 89be 615a d5bd a50d 053f
00000180: 5cf0 1ebf fb7b 8bbe 5f61 833f 9a6e 6abe
00000190: 3d85 4dbe 2071 a33d 627e 1abf e022 2abe
000001a0: e152 613f bb04 04bf e32c 87be 5e03 023f
000001b0: a6db a5be 896c 66be f585 31be 8a53 99be
000001c0: cf64 e93d 4d86 debe 8802 21bd f316 a93d
000001d0: 206b 4b3f 7acd ae3d 5031 58bf 5b56 10bf
0.42597306 -0.08442765 0.42718694 0.35868937 -0.12791343 0.024845256 0.48203784 -0.19675349
0.348463 0.3706923 0.085592195 0.39121637 0.4030435 0.5458873 0.24486376 -0.03036485
-0.16534214 0.28425577 0.7841657 0.38043684 0.35182142 -0.32019502 0.21820772 0.30526817
0.17311993 -0.2308416 -0.10692433 -0.05528793 -0.15057938 0.17490587 0.20337453 0.43963102
0.08750768 0.4992537 0.35471448 -0.36087146 0.52821136 0.3853404 0.012610591 0.33015522
0.11572459 -0.3006757 -0.39144865 -0.3332807 -0.30877593 -0.019845597 0.032952484 -0.10784932
0.24691924 -0.37567008 -0.24931276 -0.43917033 -0.32890922 -0.1409912 0.25200015 0.20140456
-0.18250942 -0.5445155 0.48283723 -0.31334794 -0.121689126 -0.5280551 -0.48361436 -0.42716178
0.21685688 -0.40518653 -0.6681054 0.4938727 -0.15750813 -0.44408926 -0.22793506 -0.4103111
-0.37014592 -0.1071538 0.09404943 0.042317346 0.060716685 -0.45518976 -0.46137166 -0.23032543
0.009217062 0.4901265 -0.49335358 -0.093902946 -0.21461563 0.39396054 0.3568722 0.11054453
0.6552584 0.10252736 -0.4797081 -0.08232884 0.13172947 -0.2680391 -0.10417629 0.51973945
-0.6208551 -0.27243027 1.026409 -0.22893754 -0.20070358 0.07980561 -0.60349095 -0.16614866
0.8801709 -0.5156972 -0.26401433 0.5078639 -0.3239414 -0.2250234 -0.17336257 -0.29946548
0.11396181 -0.43461838 -0.039309055 0.0825633 0.79460335 0.08535285 -0.84450245 -0.5638177

att_src f4 [1, 3, 20]
00000000: f942 7cbc d8b8 bc3d 24b3 523e 2145 dabe
00000010: 25c5 9e3e ede4 bdbd d8bb 8abe bdaa 07be
00000020: f656 3c3d 51d9 dabe f89c 5d3e 4fb5 9cbd
00000030: 065f bebd 4e8a 22bc f546 a53e 84db 2e3e
00000040: f9cf 29be 86db 92be ad50 4bbe 73af 833d
00000050: 10ad 0f3d 1f05 cf3d 750b 0dbf f7ca 903d
00000060: 64a6 db3e d5ea 893e d95c 1fbe 7c29 f6bd
00000070: 1741 5abd 18d4 5abd f1a1 453f 0bae 7f3e
00000080: 9a4a 3c3f f848 913e 39d6 e33d 816a f8be
00000090: 4c81 69bf 232f d0be f694 ab3e 21a2 223f
000000a0: 3644 57bd dee3 7ebc a779 093e fb1c 90be
000000b0: a0db 37bd 636d 0e3e 2200 77bb f5e3 cb3e
000000c0: 4531 eb3d 7b64 c43d b4e0 6e3e 36bf ccbe
000000d0: c628 f4bd 244c 8a3e 3fcb 033e 264d 1c3e
000000e0: ff47 a0be 66d9 53be 8b3c ea3e e513 c2bd
-0.015396827 0.09214944 0.20576149 -0.42630866 0.31009784 -0.0927218 -0.27096438 -0.13248725
0.04598137 -0.42743924 0.2164191 -0.07651769 -0.09295468 -0.00992067 0.32280698 0.17075926
-0.16583242 -0.28683108 -0.19854994 0.06429949 0.035077155 0.10108399 -0.5509561 0.070699625
0.42900383 0.26936975 -0.15562762 -0.12019631 -0.05328473 -0.053424925 0.7720023 0.24968736
0.7355133 0.28375983 0.11124844 -0.48518756 -0.91212916 -0.40660962 0.33512086 0.6352864
-0.052555285 -0.015557257 0.13425313 -0.2814711 -0.044887185 0.13908915 -0.0037689288 0.39822355
0.11484007 0.09589478 0.23327905 -0.39989632 -0.119218394 0.27011216 0.12870501 0.15263805
-0.3130493 -0.206884 0.45749316 -0.09476451

att_dst f4 [1, 3, 20]
00000000: c582 55bd 6bef 07bf 9b90 f23c 1e5a d1be
00000010: 7d2c 5d3e 8be9 debe bc4b 87bd 1e3a 22bf
00000020: 1632 c3be dfc5 87be b4f2 9dbe 1687 97be
00000030: f758 63bc 5c01 093f 49d8 ce3e 76d2 1f3f
00000040: 40d8 7bbe 866a 06be 4418 bdbe 1cc0 333e
00000050: 6231 19bf ab22 8bbe 5c9e bb3e de4c ac3d
00000060: 4aac a23e 2f65 cc3e 654a 1dbe 19db 4d3e
00000070: 2cd3 943e a84a 3d3f bdc4 04be 9828 463e
00000080: d25e 2c3e 45a8 08bc 7b5e 953e fe54 56be
00000090: 3d5d 8cbe 2914 72be c12f 66be 589c aa3d
000000a0: 3a67 fb3e 0465 fdbe 6f1b 04be 33ac c13e
000000b0: 18c3 3cbe ca5b bbbe 5f63 4f3d 79dc 273e
000000c0: d59a 2d3d 71d1 eb3c cac1 c2bd 8b62 5dbe
000000d0: f9e2 103e 73c6 d33c 4ef1 29bf 3071 8f3e
000000e0: 8a60 2cbe d38b a6be b892 efbd d96e 36bd
-0.052126665 -0.530997 0.029609969 -0.40889066 0.21599002 -0.43537554 -0.06606242 -0.6336993
-0.3812415 -0.2651815 -0.3084923 -0.2959525 -0.013876191 0.535177 0.40399387 0.6243051
-0.24594212 -0.13126573 -0.36932576 0.17553753 -0.5984098 -0.27174887 0.36644256 0.08413099
0.3177207 0.39920947 -0.1536041 0.2010311 0.2906736 0.7394204 -0.12965675 0.19351423
0.16833046 -0.0083409 0.29173645 -0.2093086 -0.27414885 -0.23640503 -0.22479154 0.083306015
0.49102193 -0.4949113 -0.1290109 0.3782669 -0.18433797 -0.36593467 0.050631877 0.16392697
0.042383987 0.028786393 -0.095096186 -0.21619622 0.14149083 0.025851464 -0.66383827 0.28016043
-0.16833702 -0.32528552 -0.11697906 -0.044539306

bias f4 [20]
00000000: 43b7 a3ba 02e9 8b3a 504a d0ba 9bfd 723b
00000010: bbbc 2a3a f976 6bbb b90f f8b9 a0ae 69bb
00000020: d2ca 8538 4a45 b139 6588 c9b9 f6e6 ed3a
00000030: 13df 8db9 9ff4 60b9 952d 8a3b bdff f7b9
00000040: 3d9d 04bb c271 9ab9 8264 9eba ba09 5c39
-0.0012490529 0.00106743 -0.0015891287 0.003707743 0.00065131084 -0.0035929068 -0.0004731396 -0.0035657063
6.3797124e-05 0.00033811695 -0.0003843933 0.0018150497 -0.0002705982 -0.00021453433 0.0042168596 -0.0004730205
-0.0020235323 -0.00029457925 -0.0012084397 0.00020984458

weight f4 [60, 12]
00000000: 19aa efbd 2468 27bd 34b1 d4bd 4a02 45bf
00000010: 43b2 2a3e 9425 d8bd 12a3 a73d 2b76 8ebd
00000020: 26e2 923b e4c9 0e3e e387 9ebb 7e12 d53c
00000030: 7e79 24be 33a3 cc3a 7ef2 cf3d 7d66 873d
00000040: 544a 08bf 5925 febe b7da 0c3e 31ab b7bd
00000050: 5491 233e 75e5 c6be 4502 3c3e f348 51bd
00000060: 6943 99be 431b c5bd 43bb 24bf 4453 60bd
00000070: fc71 a8be c019 313d 5b57 cabe 38f9 09bf
00000080: 75a5 9abe 4578 c9be 7c6e 1ebf 1109 86be
00000090: b00f d9bd ecb4 fcbe 972c 60bd e213 f73c
000000a0: 26ce 25be 14c2 88bc 5fcf fbbc 9e58 11be
000000b0: 7ceb 30be 2655 5ebe 5cff 3bbd 7e1a 34be
000000c0: f746 81be 9f04 653e 467f 5abd 56ab 86bd
000000d0: 54a3 04be f397 6bbe 4cb1 84bc 2a7d c03d
000000e0: bbc0 23be 00c9 a8be bcaa 9bbd 0427 a6be
000000f0: 52ad 96bf 7ca9 183d 5d01 a2bc 50b0 233d
00000100: ceef 5bbd da51 0c3d 4256 00bd 43a5 ea3c
00000110: f310 8dbc ebba 47be 319d 693d 50b7 c0bb
00000120: 510e 06bd 2bc4 eebd 70ff 79bd e9b7 04be
00000130: 7e4e c33c c26f 42be 1ad4 4abe 88c6 4d3d
00000140: e14c 663e 23a4 1c3e 9c12 95bd f432 dc3d
00000150: 3a88 853e d3fc b8bc ede8 07bc 4525 283b
00000160: c97d 9dbd 7046 773d eafb 22bd 4fe6 7a3d
00000170: cc41 a7bd 2c84 c2be 7a22 043d a34e 803d
00000180: 7047 9e3d e23f ecbd 3635 39bd ea92 ccbe
00000190: 3512 26bf 69b4 7e3e cd57 12bf a340 f7bd
000001a0: 001a 80bd 75f7 87bd f516 353d c990 26bf
000001b0: b688 5fbd 3c3a 7dbd 9052 4fbe 2a01 98bd
000001c0: 8e0b f6bd 03b7 d4bd c4d7 d5bc fa2f f1bc
000001d0: 6094 9fbe 2de3 bdbe 676e 58be edb0 44be
000001e0: e4af 69bd 4f23 39bd 3678 283d 996d 243e
000001f0: 66e7 ec3e f044 acbe b42e aebe b615 313d
00000200: 7e82 71bd 6c95 cfbe 93cc f3bd f47c 1abe
00000210: 41ac 83bd 9fcd c23e de8d c43c 9f9a 1c3e
00000220: 42b9 c83d b956 e03d 682f 3abd a168 cc3d
00000230: b967 053e cc2d bdbe 1fbc 9c3d 6d98 303b
00000240: d0b8 3a3c 4609 dcbe 3f37 d03d e51a d13d
00000250: 54c1 453e a296 603e 4e44 6a3e 7d69 523e
00000260: 55c2 9c3e 214d 85be a966 8d3d d0c9 ac3e
00000270: 2566 813d 6064 8dbd 2891 c8bc f7b1 013e
00000280: d91a 18bd 2b8d 123e f2e9 4ebe 610d 853c
00000290: 8e91 52bc af3f 2f3d 1296 29bd c323 0e3f
000002a0: 3732 3ebe 3146 cfbe 52e4 cd3d 50d4 30bd
000002b0: 4654 323e c96f 60be 23ea 1c3e 04e9 8c3e
000002c0: ab39 163e 7d7e 90be 578a 463e 54ac 0d3e
000002d0: 7094 ccbd 019b 9f3e a421 2b3d 7d60 4c3e
000002e0: 6312 34be 2378 833e 1459 a03d 58fe a3bd
000002f0: 827b a03c 0924 c3bd 047c 97bd 75e7 b13c
00000300: 7a85 f8bd b248 54bd 3413 13be 7aa5 4b3e
00000310: d602 75be d5e6 95be 254c 7dbd c38c aebd
00000320: fd79 433e b254 d73e 8f32 bc3d f4b9 e1be
00000330: 4a0f f7bd 4267 7bbd 35b9 313d f83f 843d
00000340: ba8e 3a3d 1e99 37bd 1aca 303e 69c9 033c
00000350: d40f bc3c 892b dc3d cbe0 ccbb 0e6d 973d
00000360: 85ef 9bbe f5dd ad3e 497e b53d 4b82 ca3d
00000370: 142b 8f3c cf89 49bd e083 31be 0413 083e
00000380: 2574 dabd d1b0 cdbe 73c1 8cbd 29e4 59be
00000390: 9c7a 243e 2828 6c3c 5f93 263e 0198 513e
000003a0: 616e 5b3e 2546 f33e 895e 8d3e 2f16 b13e
000003b0: 72cb 13bd c7f1 7dbd 631a 143e dbf2 f2be
000003c0: 2ff4 d2bd 3051 81bb adda a6bc 7f6e f5be
000003d0: 1446 963d 13b7 04be c0fa 8fbd fdb0 58bd
000003e0: aaf6 27bd 18dd 61bd 0861 ce3c 0a67 2fbd
000003f0: 7c23 3a3d 1eab 273c 031e fa3d c641 9dbb
-0.117023654 -0.0408708 -0.10385361 -0.7695662 0.16669564 -0.105540425 0.081854 -0.069561325
0.0044825254 0.13944203 -0.0048379763 0.026009794 -0.1606197 0.0015612602 0.101536736 0.06611345
-0.53238416 -0.4963787 0.13755308 -0.08968199 0.15973407 -0.38846937 0.18360241 -0.05109496
-0.29934242 -0.096243404 -0.6434824 -0.05476691 -0.32899463 0.043237448 -0.39519772 -0.538959
-0.3020436 -0.3934957 -0.61887336 -0.26178792 -0.10598695 -0.49356782 -0.054730024 0.030160848
-0.1619192 -0.016694106 -0.03073853 -0.14193961 -0.1727733 -0.21712169 -0.045897827 -0.17588231
-0.25249454 0.22365044 -0.053344034 -0.065756485 -0.1295293 -0.23007183 -0.016197823 0.09398873
-0.1599149 -0.3296585 -0.076009244 -0.32451642 -1.1771643 0.037271008 -0.01977604 0.039963067
-0.053695492 0.034257747 -0.03133226 0.028643256 -0.017219996 -0.19504897 0.057034675 -0.0058812276
-0.032728497 -0.1165851 -0.06103462 -0.12960781 0.023841139 -0.18987945 -0.19807473 0.050238162
0.22490264 0.15296988 -0.0727894 0.10751906 0.26080495 -0.022581493 -0.00829528 0.002565698
-0.07690007 0.06036991 -0.039791025 0.061254796 -0.08166847 -0.37991464 0.032259442 0.06264999
0.07728469 -0.11535622 -0.04521676 -0.39955837 -0.6487153 0.24873509 -0.57165223 -0.12072875
-0.06254959 -0.066389956 0.044211347 -0.65064675 -0.054573737 -0.061823115 -0.20246339 -0.07422097
-0.12013923 -0.10386469 -0.026103862 -0.029441822 -0.3116789 -0.37087384 -0.21135865 -0.19208117
-0.057052508 -0.04519969 0.041130267 0.16057433 0.46270293 -0.33646345 -0.34020007 0.043233596
-0.058962338 -0.40543687 -0.11904254 -0.15086728 -0.06429339 0.380475 0.023993429 0.15293358
0.0980096 0.10954041 -0.045455366 0.09980894 0.13027848 -0.36949003 0.07653069 0.0026946322
0.011396602 -0.42975825 0.10166787 0.10210208 0.1931203 0.21932462 0.22877619 0.20548053
0.30617014 -0.26035407 0.069043465 0.3374772 0.06318311 -0.06903911 -0.024483278 0.12665544
-0.03713498 0.14311664 -0.2020643 0.016241731 -0.012852086 0.042785343 -0.041402884 0.5552332
-0.18573843 -0.4048324 0.10053314 -0.043171227 0.1741496 -0.21917643 0.15323691 0.27521527
0.14670436 -0.28221503 0.1938871 0.13835269 -0.0998925 0.31172946 0.04178013 0.19958682
-0.17585139 0.25677595 0.0782949 -0.080074966 0.019590143 -0.095283575 -0.07396701 0.021716813
-0.12134834 -0.05182714 -0.14362794 0.19887343 -0.23926863 -0.29277673 -0.061840195 -0.08522942
0.19089504 0.42056805 0.09189331 -0.44087183 -0.12063463 -0.06137777 0.043389518 0.064575136
0.04554627 -0.04482376 0.17264596 0.008043625 0.022956766 0.10750491 -0.0062523833 0.073938474
-0.30456176 0.33958402 0.088619776 0.09888133 0.017476596 -0.04920369 -0.17335463 0.13288504
-0.10666684 -0.40173963 -0.06872835 -0.21278442 0.16062397 0.014413871 0.16267155 0.20468141
0.21428825 0.47514454 0.27611187 0.34587237 -0.036082692 -0.061998155 0.1446319 -0.4745091
-0.103004806 -0.003946446 -0.020367945 -0.47935864 0.07337585 -0.12960462 -0.07030249 -0.052903164
-0.04100672 -0.055142492 0.025192752 -0.042822875 0.045443997 0.010233669 0.122127555 -0.0047991006

weight f4 [20]
00000000: 611a 813f 6a79 483f bc51 8a3f e9eb 113f
00000010: c311 1a3f 437d 913f 0517 543f 4ba3 a13f
00000020: 0798 8a3f 67a1 113f d317 653f 72f5 033f
00000030: 7cd8 df3e a0dd 823f 73d2 1a3f 1c0c 2e3f
00000040: 834b 843f f7c2 be3f 4a2a 043f 0bcd 713f
1.0086175 0.78310263 1.0806193 0.57000595 0.6018335 1.1366352 0.82847625 1.2627958
1.0827645 0.56886905 0.8948948 0.51546395 0.43719852 1.0223885 0.6047737 0.6798723
1.0335544 1.4903249 0.5162703 0.94453496

bias f4 [20]
00000000: dc78 8cbe 084d c2be 9b44 02bf 9e59 3b3f
00000010: a0ec 0a3f ebbc e8be 7da4 523d e8be f8be
00000020: 8171 c8be 8b7d 553e ba03 e2bd 635d 233f
00000030: 84fb 353f 3a4a a3be 0b89 5c3f bf75 1c3f
00000040: f443 12bf 018f 1dbf b24f 103f 5b55 bc3d
-0.27435958 -0.37949395 -0.50885934 0.7318362 0.5426731 -0.45456633 0.0514264 -0.4858315
-0.39149097 0.20848672 -0.11035867 0.6381437 0.7108691 -0.31892568 0.8614661 0.61117166
-0.5713494 -0.6154633 0.56371605 0.09195968

running_mean f4 [20]
00000000: 3ee0 0abf 375a 46bf 15ca a7bf 325f 9bbf
00000010: 1cf5 8abe 6bea d7bf 42e4 04be 4a27 c1bf
00000020: 892c 80bf c094 103d 4e73 08bf 7c6a 833e
00000030: b7a8 013c eb3a 1a3e 6572 12be 4d08 64bf
00000040: 2252 1bbf 0f9d 01c0 62ee c7be 9cc1 123f
-0.54248416 -0.77481407 -1.3108546 -1.2138426 -0.2714013 -1.6868414 -0.12977698 -1.5090115
-1.0013591 0.03529811 -0.5330094 0.2566718 0.00791376 0.15061538 -0.1430145 -0.89075166
-0.606722 -2.025211 -0.3904906 0.57326674

running_var f4 [20]
00000000: 795f c03f a0ed 993f e48f 4a40 30a7 5b40
00000010: f77a 0140 ed04 8d40 5579 333f 24e2 6740
00000020: ba1b 0140 92c3 c33f 8ad2 853f 2abe 2c40
00000030: bed8 c03f d717 4c3f c031 b93f fe63 2340
00000040: 1500 b63f 19a9 de40 d98f d03f 141c e63f
1.5029136 1.2025642 3.1650324 3.4320793 2.0231302 4.4068513 0.70107013 3.6231775
2.0173173 1.5294058 1.0454876 2.6991067 1.5066144 0.79723877 1.4468307 2.552978
1.4218775 6.958142 1.6293899 1.7977319

att_src f4 [1, 3, 2]
00000000: 2d5a 05c0 949a c43f 81ff 6cbe 8897 ff3f
00000010: 35b0 7ebf a9a9 b03e
-2.083629 1.5359674 -0.23144342 1.9968119 -0.9948762 0.3450444

att_dst f4 [1, 3, 2]
00000000: e3d5 acbf 61da 8bbe a46f c33e 0ff0 953e
00000010: 2fe2 39bf d484 cf3f
-1.3502773 -0.27315047 0.38171113 0.29284713 -0.72610754 1.6212411

bias f4 [2]
00000000: e0cd 8b3e 34ce 8bbe
0.27305508 -0.27305758

weight f4 [6, 20]
00000000: f45f 4abd c787 e83d 9b83 153e d82f 9abe
00000010: da9d 8b3e af28 703d 14b8 16be f9ae 6b3e
00000020: 25a2 943e b257 b9bd dd21 d8bc 9150 143d
00000030: 7482 ecbd c4db 153d 1558 ecbe 9b8d b3be
00000040: 8148 ef3e e3a4 423f 13ed 75be 94bf f2bd
00000050: 6364 1fbf b5d8 8bbe 9862 3bbf 5399 fc3d
00000060: b34a 8d3e c66d 2fbf be3c 9ebe 1aee 37bf
00000070: 9a22 36be b7c0 533d 4470 e6be ff42 013e
00000080: 2b14 a53e 4d0f b8be 1e9f 16bc 0b43 ae3d
00000090: 414f a93b 6f1d 15bf 5ed5 8c3e 84ed 0bbf
000000a0: 9c01 a23e 3bcf 8f3e 4193 773e 018b 9bbe
000000b0: b69b a8be 1854 a43e 6944 8b3e 498f 893e
000000c0: 1878 ef3d 93d5 b53e 4810 993e 376b 92be
000000d0: 92a0 93bd 6bd3 b5bc 4ec7 f63d f47a 773e
000000e0: 3c49 153e 783c 8c3e f5f4 a8bd 1958 683e
000000f0: ab1f 2dbe db6b a2be 28f7 02bf 8559 b93e
00000100: 2473 933e abe3 f2be dbbb 803d e7e4 4fbf
00000110: 1192 ecbe 1208 eb3d ff1e 32bd ec4b c03e
00000120: d689 a93e d93f d2be 3e8c d83e bfa8 053f
00000130: 1923 5abe 756a 86bf 5e41 cabe 6b28 42be
00000140: 9766 4a3e 892a ce3e 7166 983e 9693 9abe
00000150: fad1 90bd fb1c 2d3f ee2e 693c 78b1 373f
00000160: 6438 053f 52c2 80be 9ef1 953e 74e2 5fbd
00000170: 20c9 1fbc 09b5 ba3e 627c 5dbe a9f9 0ebf
00000180: 6b9c a23d 698a 8a3f d5e9 48be 7d93 203f
00000190: 788e cebe 62c8 89bc d471 25bf 8d67 de3e
000001a0: 8b56 053d 21d4 eebe eba9 16be 58c8 c1be
000001b0: 96d0 9fbd e7db 36be 807c 93bd 7f8c e33e
000001c0: e8d1 623e 14b4 7fbc 9c92 2d3e 4e3c 4cbe
000001d0: ff38 cdbe 3d50 e2bd 2db4 ee3d 9b5c 243e
-0.049407914 0.113540225 0.14600985 -0.30114627 0.2726887 0.05863255 -0.14718658 0.23015966
0.29029956 -0.0904993 -0.026383335 0.036209647 -0.115483195 0.036586538 -0.4616095 -0.35068974
0.46735004 0.7603285 -0.24016218 -0.11852947 -0.6226255 -0.27313772 -0.7319732 0.12333932
0.27596053 -0.68526876 -0.30905718 -0.7184769 -0.17786637 0.05169746 -0.45007527 0.12623213
0.3224195 -0.35949174 -0.00919321 0.08508881 0.0051669185 -0.5824804 0.27506536 -0.54659295
0.31641853 0.28087792 0.24177267 -0.3037949 -0.32931298 0.32095408 0.2720063 0.2686713
0.11692828 0.35514507 0.29895234 -0.28597423 -0.07208361 -0.022195539 0.12049733 0.24167997
0.14578718 0.27389884 -0.08249847 0.22689857 -0.16906612 -0.31722912 -0.5115838 0.3620111
0.28798783 -0.47439322 0.062858306 -0.8120865 -0.4620519 0.11476149 -0.04348659 0.37557924
0.33112973 -0.41064337 0.42294496 0.5221061 -0.21302451 -1.0501238 -0.39502996 -0.1896073
0.19765697 0.40266827 0.29765657 -0.30190724 -0.070713 0.67622346 0.01423238 0.7175517
0.5203917 -0.25148255 0.29285902 -0.054659322 -0.009752542 0.36466244 -0.2162948 -0.558497
0.079399906 1.082349 -0.1962045 0.6272505 -0.4034307 -0.016819183 -0.6462681 0.43438378
0.032553237 -0.46646217 -0.14713256 -0.37848163 -0.078034565 -0.17857324 -0.07201481 0.44443128
0.22150385 -0.015606899 0.16950458 -0.1994488 -0.40082547 -0.110504605 0.116554596 0.16050951

att_src f4 [1, 3, 20]
00000000: dc49 86be 20d8 7d3f f794 85be 98a1 5e3f
00000010: 65bd 66be 4b27 153f 9f74 fdbe d5b3 c8be
00000020: 5caa 7fbe c5b7 de3e ae53 17bf 817a 21be
00000030: 70e4 dfbe f356 553f 2768 99be 6038 b83d
00000040: 2db6 173f 7abf 283e c496 f13d e2ad 0abf
00000050: 535f 5b3e a1f3 073d 9309 74be d1e6 c2bd
00000060: abcc 25bf a067 3c3f 925f b03d 689d a6bc
00000070: eb31 00bf 5f5a f03e 281e e6bd 1e66 503f
00000080: 7827 1abf 60a5 89be f375 3abe 6907 5dbe
00000090: 6203 aa3e cd2e 3b3f 7752 7e3e 6c0e 0e3f
000000a0: 6399 b43d 930a 0b3f 7fa0 34bf f4fb ed3e
000000b0: 4ac9 6ebe eea8 a4be 0f70 83bd 1760 1ebf
000000c0: 9787 ccbd 061c 43bf 1638 54be de06 13bf
000000d0: fa14 49be 2886 2b3f 45ce dc3c 81b8 3dbf
000000e0: 0b74 a6be 94d8 a8be 0170 2fbe adff 553e
-0.26228225 0.99157906 -0.26090214 0.8696532 -0.22533186 0.5826308 -0.49503037 -0.391997
-0.2496733 0.4349958 -0.5911206 -0.15769388 -0.4372897 0.833358 -0.29962274 0.08995128
0.59262353 0.16479293 0.117963344 -0.54171574 0.21423082 0.033191327 -0.23831777 -0.09516681
-0.64765424 0.7359562 0.086119786 -0.020338729 -0.5007617 0.46943948 -0.112362206 0.8140582
-0.60216475 -0.26883984 -0.18209057 -0.21584858 0.33205706 0.7311829 0.24836145 0.55490756
0.08818319 0.5431301 -0.705574 0.46481287 -0.23318973 -0.32160133 -0.06417858 -0.6186537
-0.09986799 -0.76214635 -0.2072452 -0.57432353 -0.19636908 0.6700158 0.026953826 -0.74109656
-0.3251041 -0.32977736 -0.1713257 0.20898314

att_dst f4 [1, 3, 20]
00000000: 4f1d e1be 61e8 5e3e 6fa1 98be 3cc1 623d
00000010: fe08 c7bd 1e1b 4c3f 47a0 b83d 345c d9bb
00000020: e32e 88be a544 293e 6020 1abe ba7b 0f3d
00000030: 5d62 1d3e 51f5 803b 223f f6bb 8780 073e
00000040: 5aff 99bd 1db0 3ebd b590 a4be f48e d53e
00000050: b04f 89be 5df9 3f3e fb31 a13e 0ec3 41be
00000060: 5fb5 68bd a0cc 99be 26f2 26bf 35d6 a5be
00000070: 403d e63e 94e9 8e3e f603 f33e 3a4a 093f
00000080: 6d62 0b3d 6449 753e 28b9 fe3e e5ad 18bd
00000090: 470e 6bbd a2f4 d9bd c41f e5be c305 4b3d
000000a0: 4e9c 97be f825 863e 6cd5 f7be c799 f13e
000000b0: b42b 983e 6bc6 71be 7e42 adbe 0114 613d
000000c0: 4f5d 603e 289c 4dbe 90ed 22be 2a47 0abe
000000d0: 7fe6 dc3e cb8f febe 4db3 853e 79bb 973e
000000e0: 04fc f1bd 6a45 d73d 0627 f9be a559 b5be
-0.43967673 0.21768333 -0.29810664 0.055360064 -0.09718512 0.7972888 0.090149455 -0.006633306
-0.26598272 0.16530092 -0.15051413 0.035030104 0.15369554 0.003935494 -0.0075148502 0.13232623
-0.075194076 -0.046554673 -0.32141653 0.41710627 -0.2681861 0.18747468 0.31483445 -0.18922064
-0.056813594 -0.3003893 -0.6521324 -0.3238999 0.44968605 0.2791258 0.4746396 0.53628886
0.034029413 0.23953778 0.49750638 -0.037275214 -0.057386663 -0.10642363 -0.44750798 0.04956604
-0.2961144 0.26200843 -0.48405015 0.47187635 0.29720843 -0.23610847 -0.33839792 0.054950718
0.21910594 -0.200791 -0.15910935 -0.1350371 0.43144605 -0.4971908 0.26113358 0.29635218
-0.11815646 0.105112866 -0.48662585 -0.35419956

bias f4 [20]
00000000: b0a9 62b7 dcf9 54bb 614b abb9 8adc d239
00000010: b00d 8b3a bb9c f83a 0682 e1b9 eff4 b5b8
00000020: 6ea1 803a 612f 8cba 6c27 66b9 9b4e 7d3a
00000030: ef06 03b9 1cc7 ad3a a175 1e3a a601 86ba
00000040: 9cf6 15ba f031 3b3a 2de3 173b 2114 aaba
-1.3510158e-05 -0.003249756 -0.00032671823 0.00040218636 0.0010608938 0.0018967608 -0.0004301222 -8.676375e-05
0.0009813735 -0.0010695272 -0.00021949195 0.0009662897 -0.00012495717 0.0013258192 0.000604475 -0.001022388
-0.00057206466 0.0007140925 0.0023176179 -0.001297597

weight f4 [60, 12]
00000000: d035 743e fed9 39bb 394e 9c3d 6890 3d3e
00000010: 6261 8ebd bb2b 6a3e 93a2 a63e caca 8e3e
00000020: 64d8 a73e ea4f 503e 3f83 d93e 453c e03e
00000030: 2b15 34bf 1120 dc3e 207a b4be c36b 8cbe
00000040: 1d79 0abe 40a7 61bd 7e95 a4be 8ebd b9be
00000050: 158c 0cbf bd33 133d c1f3 dfbe da41 e4be
00000060: 55f7 30be 3bd1 bdbe e6b0 57be 069f e0bb
00000070: febf 35be efd4 09be aab7 eabc 0ede 8dbe
00000080: 1425 e8bd 15f3 80be f66f 65bd e144 f3bd
00000090: 392b 2fbf b50b a73c b9a9 f0be 167e f8bd
000000a0: ffa8 57be 3e96 5a3d 5c19 ccbd cae4 1bbf
000000b0: 6a16 3bbf db2a 4b3e 07c2 1bbf e445 8dbc
000000c0: f07a b43d ade1 80be 80ba 62bd c0f9 79be
000000d0: c8d5 b9be d0b5 7cbd 4b44 09be 188c 7cbe
000000e0: 3854 c0bd c5c9 cb3d af6e 11bd 57f6 48bc
000000f0: f3ba a9be 47ba 8e3e 8ab7 c1be 2fa1 70be
00000100: eea6 46be 08a1 4abe b9da c4be 2fe6 b6be
00000110: 0a28 73be 655e 53be c828 b5be f34e 8dbe
00000120: 32f6 a33e d9a6 92bd 11f8 ff3d c554 00be
00000130: 76de 6bbd 7b4c 7fbe 0221 d3bc afd2 1d3e
00000140: a1d8 cbbc e04f 09be 90ce 2b3d 369d 4c3e
00000150: 712a 083e 68f5 f23d 9d59 9b3d 3b62 d03d
00000160: ebf5 b93d b64c ecbd 3cbf 563e d926 9e3d
00000170: f6b9 b5bd 66ad 17be 8d20 acbe 34ee 45bd
00000180: 869e 10be 745a 0dbd 9185 90be 2ac5 d73a
00000190: 3d36 a53c d2e4 413e 2905 9d3c 7a83 cc3d
000001a0: 7169 5dbd bba9 a93d 19de 8a3e 8c17 7b3c
000001b0: 26f0 99be bec6 ae3d 8a00 05be 9433 2bbe
000001c0: 520a febd 4d79 09bd 3088 8fbd 8ec6 23be
000001d0: 2ce2 a9be 6b22 cfbc b92c cabd 2fd4 83bc
000001e0: d8c8 a13d 26ec 6dbe 2c29 a03e 5d2d 333c
000001f0: f9ca 823c 92c7 f2bd 77d1 543d eeb3 233e
00000200: aa6f c83d 27ef 9f3c b531 a23e 744b c83d
00000210: b5b7 5cbe 6ebe 873b 1473 a73d 15d5 19bd
00000220: 689c c73d 146f b23d 9ec0 eabd 71b3 81bd
00000230: 3940 88bd 5d5a deba daba a5bd 3258 bcbe
00000240: ce62 c3bd dfcb e73c dce6 b3bd 8497 9dbc
00000250: e59b 0c3c 6b30 133e 1856 4fbe c87b e3bd
00000260: 9b72 a03d c4bb 51bd d056 6e3c b727 5d3d
00000270: ade4 02bf 6463 a53e 3b36 adbe bb12 bcbe
00000280: 4952 0dbe 9b65 60be f30e 40be c6d2 0bbf
00000290: bdff b9be 959c 7e3e 6f30 eebe de7d 0bbe
000002a0: 9ff9 3f3d d43c 26bd 52d5 193d faba 393e
000002b0: b4de 233e 3530 873d dbd0 833e c15a 37be
000002c0: a8c1 083d 3129 43bd 30f8 82bd e7f9 073e
000002d0: 221f 10be e888 923c 747d 19be f94c dcbd
000002e0: 7b8a 18bd be3c 95be 2cb9 0dbe a530 80bd
000002f0: 2ee9 18bd 56e1 7dbd f9ee 88be 6979 18be
00000300: d4de f2bd 5904 bf3e 9630 423d 2b47 ccbc
00000310: 6aad abbc 74f6 febd f5e6 4abe 5f03 d6bc
00000320: d53e d2bd ac16 94bc 688b 82be 2f3b 33be
00000330: 357a 723e 5124 6dbe bf77 2d3e 8f09 0f3e
00000340: f4ec e63d 7011 a63e a833 cf3e 9e52 813e
00000350: a398 4b3e 13b5 be3e 0590 a53e 9664 c53e
00000360: 1758 6dbd 02ac 84bd 9377 0bbe e54f e33d
00000370: c177 803d c244 333c a69f d93d 06d1 17bc
00000380: 3d3c 803c c32b bc3e c2f8 8bbc cf32 1d3d
00000390: d462 743e 1fa7 2c3d faf0 f93e f48d 873e
000003a0: 6323 803e 0450 ab3e 5e78 893e 0b0c 913e
000003b0: acfe c23e a8b8 063e ef2f c33e c2eb 263e
000003c0: 5f9e d9bd 6934 18bf d991 81bc dda6 06be
000003d0: fc6b b23b 44f2 fdbd bb6f 54be 28d8 d7bd
000003e0: d269 a33d c16d 843d 5242 ecbd 440c 873c
000003f0: 1e03 df3e ab6c bc3e 3abd c9bd 4492 0e3d
0.23848653 -0.0028358693 0.07632107 0.18512118 -0.06952168 0.22868244 0.3254591 0.2788909
0.3278228 0.20342985 0.42482945 0.43795982 -0.703448 0.42993215 -0.35249424 -0.27425966
-0.13522764 -0.055091143 -0.32145303 -0.3627743 -0.5490125 0.035938013 -0.43740657 -0.4458149
-0.1728185 -0.37073693 -0.21063575 -0.0068548946 -0.1774902 -0.13460134 -0.028652031 -0.27708477
-0.11335197 -0.25185457 -0.056014977 -0.11878372 -0.6842533 0.020391325 -0.47004488 -0.12133424
-0.2106056 0.05336594 -0.099657744 -0.6089598 -0.73081076 0.19840567 -0.6084294 -0.01724524
0.08812511 -0.25172177 -0.05535364 -0.24411678 -0.36295915 -0.061696827 -0.13404958 -0.24662817
-0.093910635 0.09950594 -0.035505947 -0.012265763 -0.33150443 0.27876493 -0.37835342 -0.23498987
-0.19399616 -0.19787991 -0.38448122 -0.3572249 -0.23745742 -0.20641477 -0.35382676 -0.27599296
0.3202377 -0.0716073 0.12498487 -0.12532337 -0.057585202 -0.24931519 -0.025772575 0.154124
-0.02488357 -0.13409376 0.04194504 0.19981846 0.1329744 0.11863214 0.07585452 0.10174986
0.09080108 -0.11538069 0.20971388 0.07722253 -0.0887336 -0.1481224 -0.33618584 -0.04832287
-0.14122972 -0.03451009 -0.28226903 0.0016461958 0.020167464 0.18934944 0.0191675 0.09986015
-0.054055635 0.08284327 0.27122572 0.015325438 -0.3006603 0.08534001 -0.12988487 -0.16718894
-0.12404312 -0.033562947 -0.070083976 -0.15993711 -0.33180368 -0.025284966 -0.098718114 -0.016092388
0.07899636 -0.23234615 0.31281412 0.010936108 0.015965926 -0.11854471 0.051957574 0.15986606
0.09786923 0.019523216 0.31678548 0.097800165 -0.21554454 0.004142574 0.08176246 -0.037556726
0.09746629 0.08712593 -0.1146252 -0.06333054 -0.066528745 -0.0016964186 -0.0809228 -0.36786038
-0.0954033 0.028295456 -0.08784267 -0.019237287 0.00858209 0.14373939 -0.20247686 -0.11107594
0.07834359 -0.051204458 0.014547065 0.053992953 -0.5113018 0.32302392 -0.33830437 -0.3673304
-0.1380092 -0.2191376 -0.18755703 -0.5461849 -0.36327925 0.24864419 -0.46521327 -0.13622233
0.046868917 -0.040585354 0.037556954 0.18137732 0.16002923 0.06600992 0.25745282 -0.17905714
0.03338781 -0.047646705 -0.06394994 0.13278924 -0.14074376 0.017887548 -0.14989263 -0.10756869
-0.03724144 -0.29147905 -0.13840169 -0.06259278 -0.037331752 -0.061982475 -0.26744822 -0.14890064
-0.11858907 0.37308004 0.047409616 -0.02493628 -0.020956714 -0.12449351 -0.19814666 -0.026124654
-0.102658905 -0.018077217 -0.25496984 -0.17503045 0.23679431 -0.23158385 0.16940211 0.1396849
0.11275664 0.3243518 0.40469098 0.25258344 0.19882445 0.37247524 0.3233644 0.38553303
-0.057945337 -0.064781204 -0.13619833 0.11099223 0.06272841 0.010941686 0.10626154 -0.009266144
0.015653724 0.36752138 -0.01708639 0.038378533 0.23865825 0.042151567 0.48816663 0.2647549
0.25026998 0.33459485 0.26849645 0.283295 0.38084924 0.13156378 0.38122508 0.16300872
-0.1062591 -0.5945497 -0.015816616 -0.13149591 0.0054450016 -0.12399724 -0.20745747 -0.105392754
0.07979168 0.064662464 -0.11536087 0.01648534 0.43557066 0.36801657 -0.09850545 0.03480746

weight f4 [20]
00000000: fb15 2a3f 57d3 8b3f 63f7 763f 6cc0 563f
00000010: ca50 793f a3c8 923f 8fc4 943f ee09 4f3f
00000020: fef2 863f 66a4 933f 4a57 943f f42b 993f
00000030: 8efc b93f 0e86 763f 8f56 983f fbd3 5f3f
00000040: e5ed 6e3f 6ee2 4f3f 988c ab3f abc3 103f
0.6643979 1.0923871 0.9647123 0.8388736 0.973889 1.146748 1.1622485 0.80874527
1.0542905 1.1534545 1.1589139 1.1966538 1.4530199 0.962983 1.1901416 0.8743283
0.9333175 0.8120488 1.3402281 0.56548566

bias f4 [20]
00000000: 670b db3d f3d1 febd 02c0 bcbe 286a 4b3d
00000010: de60 8dbe adc0 d33d 5ccf 0c3e 7c5e 823e
00000020: 10c0 a03e 3931 01bf b984 c5bd eaba 69be
00000030: 0fe4 01be 1dee c73d 2c5c 003e 0d70 acbe
00000040: 96e5 043f 3bf3 e23e c16d c23e 0e3e c7be
0.10695534 -0.124423884 -0.3686524 0.049661785 -0.27612966 0.10339484 0.13750976 0.2546271
0.31396532 -0.5046573 -0.096444555 -0.22825208 -0.12684654 0.097622134 0.12535161 -0.33679238
0.5191282 0.44326195 0.3797436 -0.3891453

running_mean f4 [20]
00000000: 2b57 f43e 650b afbe 80e5 82bf 9656 2fbf
00000010: f614 6abe fa53 84bf 5005 36bf cb49 93bf
00000020: e5ee 3e3d fe68 ebbf cfad 993f 21ff 6c3f
00000030: b920 90bf c6dc a0bf 963f 84be 0847 a3bf
00000040: a185 4c3f b1ea b53f 28aa 253b b7cc a33f
0.47722754 -0.3418838 -1.0226288 -0.68491495 -0.22859558 -1.0338128 -0.71101856 -1.1506895
0.046614546 -1.8391416 1.2006167 0.92576796 -1.1259986 -1.2567375 -0.25829762 -1.2756052
0.798914 1.4212247 0.0025278423 1.2796849

running_var f4 [20]
00000000: 556e e33f a58f 7e40 ba8f 7740 b5bb 1a40
00000010: 2c42 0f40 0704 2c40 3658 833f 0c91 e83f
00000020: e499 2c3f 2703 8a40 d76d fe3f ac12 0740
00000030: 2620 6340 1fa3 5140 f636 7f3f 8328 1140
00000040: 29fd 1f40 1dee 3b40 676a 483f 370a 1740
1.7768046 3.9775174 3.8681474 2.4177067 2.2384138 2.6877458 1.0261295 1.8169265
0.6742232 4.312885 1.987727 2.1105146 3.5488372 3.2755811 0.9969324 2.2680976
2.4998267 2.9364083 0.7828736 2.3599985

att_src f4 [1, 3, 2]
00000000: 1a90 7cbe f728 793f ab78 83bd b219 16bf
00000010: e585 3cbf e775 273f
-0.24664345 0.9732813 -0.064195 -0.5863296 -0.73641807 0.6541428

att_dst f4 [1, 3, 2]
00000000: c751 35c0 e0b5 a9bf 7a20 0d3e c8ea f4bf
00000010: b8b7 db3f 3055 b43f
-2.8331163 -1.3258629 0.1378192 -1.913415 1.7165442 1.4088497

bias f4 [2]
00000000: e998 2c3f 0a99 2cbf
0.6742082 -0.6742102
